best_model_MLP.pt (torch, 158152 bytes, 4 tensors)

fc1.weight f4 [75, 500]
000000 52 b1 3b 3c 91 9d ac 3f 49 03 65 be fe ae 2b 3f
       0.011455851 1.3485585 -0.22364534 0.6706389
000010 c3 89 e3 3e 43 b0 d3 3f 02 6f 86 bf 50 9a a2 3e
       0.4444104 1.6538166 -1.0502627 0.31758356
000020 37 8a 21 c0 73 bc a3 bf 65 bf 83 3f 37 a8 0d c0
       -2.524061 -1.2791885 1.0292784 -2.213392
000030 78 01 86 3f c7 c7 e1 be ee c1 20 be 6b eb 08 3f
       1.0469198 -0.4409773 -0.15698978 0.5348422
000040 0b 01 44 bf 10 f5 ba 3d 66 ae b3 3f 87 d3 b3 bf
       -0.7656409 0.09128773 1.4037597 -1.4048928
000050 33 f3 7e bf 80 59 ca bf 0d f0 04 c0 d0 66 2c bf
       -0.9958984 -1.5808563 -2.0771515 -0.6734438
000060 aa 79 1f bf 04 09 60 3f bf a7 48 be 68 00 98 3f
       -0.6229502 0.87513757 -0.1959524 1.1875124
000070 fc 93 65 3e 0d 9f a6 bc 74 92 db bf 49 ec 70 3f
       0.22419733 -0.020339513 -1.7154069 0.9411054
000080 30 16 89 bf 0d a1 2d 3f 80 2d 4e bf 8d e2 11 bf
       -1.0709896 0.6782387 -0.8053818 -0.56986314
000090 2e 03 4f 3f 57 40 80 be 59 36 3f be ca 43 8a be
       0.80864227 -0.25049087 -0.18673076 -0.27004844
0000a0 a6 45 9e 3f f0 5f 60 be 31 c2 c7 3f 20 8b 77 be
       1.2365005 -0.21911597 1.5606138 -0.24174166
0000b0 04 69 0f bd 23 14 51 3f 06 49 09 3e 38 0e 86 3f
       -0.03501226 0.8167135 0.13406762 1.0473089
0000c0 96 ec 38 3f 44 5d da bf ce 5f 03 be c9 95 b5 bf
       0.72236 -1.7059712 -0.12829515 -1.4186336
0000d0 1c ac ac be 63 28 29 3f 4f 83 94 bf 37 19 90 be
       -0.3372506 0.6607725 -1.1602572 -0.28144237
0000e0 8a 2a 36 3f 62 63 65 3e e6 70 30 bf 4b 35 41 bf
       0.7115866 0.22401193 -0.6892227 -0.75471944
0000f0 8e df 2c bf 24 0e 46 3f 5b 07 0f bf 65 12 9e be
       -0.6752862 0.77365327 -0.558706 -0.3087341
000100 15 cd 73 3f c4 fa fc 3f 3d 8a 10 bf 22 04 cd bf
       0.95234805 1.9764028 -0.56460935 -1.6016886
000110 f6 16 96 bf bd a6 10 40 bf 0e 18 be 25 fe 0c 3f
       -1.1725757 2.260177 -0.14849375 0.55075294
000120 e9 7b 61 3e ca 1c 91 be c0 69 22 bf 50 66 ea 3e
       0.22019924 -0.28342277 -0.6344261 0.45781183
000130 92 6b 31 bf 0e 40 84 be 1c f0 45 3f c7 8f e5 bf
       -0.69304764 -0.2583012 0.773195 -1.7934502
000140 79 82 70 be 7c 33 24 c0 e7 b4 8d bf 62 e7 d4 be
       -0.23487271 -2.5656424 -1.1070832 -0.4158278
000150 d6 3e a5 bf 45 95 21 3f 7e 45 58 3f 6f ae c5 3f
       -1.2909801 0.6311839 0.84481037 1.5443858
000160 a7 c5 e7 be 94 1d 26 bf ad 6c b7 3f 1b 1d 67 3f
       -0.45267984 -0.6488888 1.433004 0.90278786
000170 f1 5b f1 3d 4d 35 31 c0 f7 af 9f 3f ab 94 69 3f
       0.117851146 -2.7688782 1.2475575 0.91242474
000180 6d 8b 1b bf a3 13 d3 3f 4b 18 d3 be b3 f7 da be
       -0.6075962 1.6490368 -0.41229472 -0.42767105
000190 8c ed a9 be fa f4 5a bd b8 43 28 3e 1d b1 95 be
       -0.33189046 -0.053456284 0.16432083 -0.2923669
0001a0 82 e0 a7 bf 13 bf 51 3f ad da 69 bf 16 2a c7 3f
       -1.3115389 0.8193218 -0.913493 1.5559719
0001b0 65 4f 40 3e 3f e6 c6 bf be 97 7e 3f 4e cd 9a 3f
       0.18780287 -1.5539016 0.9945029 1.2093904
0001c0 15 46 00 3f 44 d2 e6 bf e7 19 9b 3f f1 e5 01 bf
       0.50106937 -1.8032918 1.211728 -0.5074149
0001d0 4e b0 06 bf e3 d6 c6 3f 4e f6 88 bf 1f e5 35 3f
       -0.5261277 1.5534328 -1.0700166 0.71052736
0001e0 79 10 e8 bf c7 80 73 3f d4 27 d8 3f 10 8a 60 bf
       -1.8130027 0.95118374 1.6887155 -0.87710667
0001f0 e5 1a fd 3c 27 8b 68 bf c7 17 46 3f ad 45 7b 3f
       0.030896613 -0.9083733 0.7738003 0.9815319
000200 92 71 69 3f 30 8a 03 40 97 f7 bf 3e c2 b5 06 bd
       0.9118892 2.0553093 0.37493584 -0.03288818
000210 83 77 29 3f 07 45 32 3d ab b2 7e 3e 1b 44 db bf
       0.66197985 0.04352286 0.24872844 -1.7130159
000220 f3 86 e7 3f 56 76 02 40 d3 a4 ba bf 8b d7 a8 3f
       1.8088058 2.0384727 -1.458155 1.3190778
000230 03 b1 28 bf 2e a0 a8 be 82 45 8c 3f 63 af 98 bf
       -0.658951 -0.32934707 1.0958712 -1.1928524
000240 7b 53 bf bf 42 7d 9e 3e b9 4e bb 3f 31 83 a0 be
       -1.4947351 0.3095494 1.4633399 -0.3135009
000250 a1 c0 74 bf 5a b8 d1 3d 12 68 a4 bf 61 6f 2e 3f
       -0.9560643 0.102402404 -1.284426 0.681387
000260 a2 c8 85 bf 6d 81 aa bf 55 b2 8f 3b 4d 77 91 bf
       -1.0451853 -1.3320748 0.0043852725 -1.1364533
000270 fd 57 c7 3e 5b f2 25 bf 40 5e 76 3f 85 85 84 3f
       0.38934317 -0.6482293 0.96237564 1.0353247
000280 9b 69 6f 3f 08 64 7c bf 40 3e 53 3f 49 ce de bf
       0.93520516 -0.98590136 0.8251686 -1.7406703
000290 d7 e4 d1 3f b8 bc e7 3e da 73 96 3f 90 bc 48 3f
       1.6397961 0.45261168 1.1754105 0.78412724
0002a0 14 3b 8e 3f ba c0 71 3e ee 11 68 3f 15 a1 27 bf
       1.1111779 0.23608676 0.9065236 -0.65480167
0002b0 d4 cc cf bf 97 fa 1a bf e7 a9 06 c0 35 3b a7 3f
       -1.6234384 -0.6053862 -2.10412 1.3064944
0002c0 cd d9 a4 3f 3a 1a 33 3f 12 40 98 3e 38 b4 a9 3f
       1.2878968 0.69961894 0.29736382 1.3258123
0002d0 53 7c d3 3e 5f ab de bf 8f c1 86 3f 92 93 f4 bf
       0.4130579 -1.7396048 1.0527819 -1.9107535
0002e0 52 64 eb bf d1 fd 8f 3e 8c 79 e7 3f 48 e1 95 3f
       -1.838999 0.28123334 1.8083968 1.1709375
0002f0 fa b6 ed 3e 00 00 e2 bf e9 25 b2 bf f8 3a e4 3e
       0.46428663 -1.765625 -1.3917819 0.4457624
000300 3f 81 ba bf a7 65 15 40 36 c1 87 bf 79 af d2 3f
       -1.4570693 2.3343294 -1.0605838 1.64598
000310 aa 26 34 bc fc 20 90 bf c8 d0 ab bf 04 93 16 3f
       -0.010995546 -1.1260066 -1.342309 0.5881808
000320 12 94 a6 bf 9c 9c 86 3f 72 f4 70 bf 7f 86 c0 bf
       -1.3013937 1.0516543 -0.94122994 -1.5041045
000330 fe e2 b8 bf 49 39 e0 be a8 ec 3d 3f 65 74 95 3f
       -1.4444273 -0.43793705 0.74189234 1.1676146
000340 61 dd d6 bf 53 c0 02 3f a2 d6 6a be 12 db 41 3f
       -1.678631 0.51074713 -0.22933438 0.757249
000350 18 a3 e2 3e 2b 64 9e bf d1 41 18 c0 bc c0 1c 3f
       0.44265056 -1.2374319 -2.379017 0.6123159
000360 7c f5 e8 bf ff 5b 1d 3f 94 5a b4 bf e7 5c ba 3f
       -1.8199916 0.614685 -1.4090142 1.4559602
000370 88 e1 ae bf fc 33 6b bd ed c2 d0 be de f3 de 3e
       -1.3662577 -0.057422623 -0.40773717 0.4354543
000380 45 9b 2d bf bf 27 a2 bf 5d 46 19 3e aa 8a d5 3f
       -0.6781505 -1.266838 0.14968248 1.6682942
000390 a2 e2 3c bf 59 31 3f 3f b5 28 06 bf be 44 df bf
       -0.73783314 0.74684674 -0.52405864 -1.7442853
0003a0 c9 cb 06 3f f3 68 cc 3f 55 02 d8 3f 97 23 04 bf
       0.526547 1.5969528 1.6875712 -0.51616806
0003b0 85 a0 43 3e 09 d3 a7 3f 8d b9 b1 3f c8 7f 51 3f
       0.19104202 1.3111278 1.3884751 0.81835604
0003c0 ab 53 4a 3f c6 3f 00 3f 3e f5 8e 3d 5f 82 0e c0
       0.7903392 0.5009731 0.0698037 -2.2267072
0003d0 dd 42 e8 bd 26 d9 96 3f 5a 9d be bf 49 01 7d 3e
       -0.11340878 1.1785018 -1.489177 0.24707521
0003e0 7e f7 79 bf fb cb 57 3e 80 2a 2e be be 21 5c bf
       -0.9764327 0.21073906 -0.170084 -0.85988986
0003f0 85 b9 57 bf 08 32 41 3f f9 3b 01 40 d6 14 35 3e
       -0.84267455 0.75466967 2.0192854 0.1768373

fc1.bias f4 [75]
000000 2d 4e 6d be 6e a1 35 40 11 b1 a1 bf ac 63 2c bf
       -0.23174353 2.837978 -1.2632161 -0.6733959
000010 e3 2c 55 3f 14 49 c2 be 06 06 d3 be f8 25 ca be
       0.83271617 -0.3794638 -0.41215533 -0.39482093
000020 ae 7e c4 be 25 43 f9 3f 5e b3 48 40 ce 41 2e bd
       -0.383779 1.9473616 3.1359477 -0.042543225
000030 f1 1e c8 be 84 9c b6 be 96 67 f3 be 61 be d2 be
       -0.39086106 -0.35666287 -0.47539967 -0.41160873
000040 9e ce a7 3f 54 7e 6d bf fb b2 e0 be 61 30 25 40
       1.310993 -0.92770886 -0.4388655 2.5810778
000050 4f fc d0 be 21 0b e2 be 04 f8 c7 be af 9d c8 be
       -0.40817496 -0.44149116 -0.39056408 -0.39182803
000060 da 34 77 bf 2e 25 d5 be 02 7b e2 be 1f d0 10 c0
       -0.9656502 -0.41629928 -0.44234473 -2.2627027
000070 46 53 df be 5c 47 10 3e c6 13 d2 be 9c f9 21 bf
       -0.4361822 0.14089721 -0.4103071 -0.632715
000080 06 c6 56 be 04 98 b9 be 76 20 51 40 7d 69 ab bf
       -0.20973977 -0.3624879 3.2676063 -1.3391567
000090 7d 62 41 bf db 1f cb bf 40 6a d5 be 36 7f 1d 3f
       -0.75540906 -1.5869097 -0.41682625 0.61522233
0000a0 ba 3c 23 40 34 e6 fa be 79 a4 c7 be 66 e6 df be
       2.5505815 -0.49003756 -0.3899267 -0.43730468
0000b0 66 03 04 40 6a 17 36 bd b5 e0 e8 bf 4b 32 23 40
       2.0627074 -0.044455923 -1.8193575 2.5499446
0000c0 4b 07 bb be c9 da b7 be a5 9c 02 40 c7 2d dc be
       -0.36529002 -0.35909107 2.0408108 -0.43003675
0000d0 16 d9 d1 be c4 50 93 bf 5b 57 a7 3f 44 57 d4 be
       -0.40985936 -1.1509023 1.3073534 -0.41472828
0000e0 ff 52 ca be 86 1d c7 be a7 7f cd be 71 96 e3 be
       -0.39516446 -0.38889712 -0.40136454 -0.44450715
0000f0 82 1c c4 be 09 c7 e3 be 27 1e b8 be e4 07 cc be
       -0.38303 -0.4448779 -0.35960504 -0.3984977
000100 96 59 da be 55 c0 db be ac 5c c9 3f 46 04 c0 be
       -0.42646474 -0.42920175 1.5731406 -0.3750326
000110 e0 72 05 bf b4 db b8 be a3 29 2e bf 04 bc da be
       -0.5212841 -0.3610512 -0.6803228 -0.4272157
000120 55 28 b8 3f 21 ec bd be 2f bb 59 bd
       1.4387308 -0.37094215 -0.053157028

fc2.weight f4 [19, 75]
000000 b9 39 bd bf 16 4a dc bf 0b 53 68 bf 96 9b af bf
       -1.478324 -1.7210109 -0.90751714 -1.3719356
000010 ca 71 96 bf 9f b3 98 be e2 c2 a6 be f1 08 cb be
       -1.1753476 -0.2982454 -0.3257056 -0.3965526
000020 6d 16 dc be 65 c1 d7 bf c8 f9 ed bf 96 26 ca bf
       -0.4298586 -1.6855894 -1.8591852 -1.5793025
000030 23 f8 dd be 18 18 b6 be 49 af 2f 3e bb 37 b6 be
       -0.43353376 -0.35565257 0.1715671 -0.35589394
000040 89 27 db bf 04 7a 85 be c1 42 fb be 3a bb d1 bf
       -1.712144 -0.26069653 -0.49074367 -1.6385262
000050 55 e8 fb be 45 f6 d1 be 71 c5 d0 be 1f ba 99 be
       -0.49200693 -0.410082 -0.40775636 -0.30024812
000060 5c 7d 72 bf a1 dc f7 be f2 73 d8 be a0 4e 59 3f
       -0.94722533 -0.48410514 -0.4227596 0.848856
000070 a3 7c da be 93 d9 bd bf 10 5f d1 3e 05 ea a4 bf
       -0.42673215 -1.4832023 0.4089284 -1.2883917
000080 1f 6c 7d bf ee 34 9a be b9 56 c6 bf ed ec 03 bf
       -0.98993105 -0.30118507 -1.5495216 -0.51533395
000090 e5 02 60 bf 50 3c 6a bf 2a 45 b1 be 76 ba d6 bd
       -0.87504417 -0.9149828 -0.3462308 -0.10484783
0000a0 69 98 bf bf 89 45 92 bf 14 1f 95 be 32 a2 cc be
       -1.4968387 -1.142747 -0.29125273 -0.39967495
0000b0 f0 92 ad bf a8 09 ad bf a8 d3 93 be 2d a8 e7 bf
       -1.3560467 -1.3518572 -0.28872418 -1.8098198
0000c0 a7 ed ba be 3e 8c c9 be 59 a8 b2 bf 46 24 cc be
       -0.3650944 -0.3936481 -1.3957626 -0.39871424
0000d0 85 da d3 be 49 69 2c bf b6 35 8d bf a8 7e fb be
       -0.41377655 -0.6734815 -1.1032016 -0.4912007
0000e0 d1 9b bd 3e 86 c0 fa be e8 bb c6 be 24 a0 b6 be
       0.3703294 -0.4897501 -0.38815236 -0.35669053
0000f0 1a 3d b4 be 3f 14 03 bf 9d 36 bc be 28 3b d3 be
       -0.35202867 -0.5120277 -0.36760417 -0.4125607
000100 da 51 a6 be 41 c8 00 3f 6a 53 e7 bf ab 95 c3 be
       -0.32484323 0.50305563 -1.8072331 -0.38200125
000110 df bf 6e 3f aa 39 f6 be 64 98 b3 bf a4 e1 e0 be
       0.9326152 -0.4809087 -1.4030881 -0.4392215
000120 cb da f7 be 50 f9 02 bf a1 28 67 bf 40 2e 1a bf
       -0.48409113 -0.5116167 -0.9029637 -0.6022682
000130 84 c3 16 bf 54 16 f9 be b0 61 f8 be 91 35 0a bf
       -0.58892083 -0.48649848 -0.4851203 -0.53987986
000140 59 40 e8 be 24 85 9d be b8 37 9a be f4 29 b0 be
       -0.45361593 -0.3076564 -0.30120635 -0.34407008
000150 d0 59 e3 be 88 af 14 bf 1d 1b fa be 9d 10 bc be
       -0.4440446 -0.5808034 -0.4884881 -0.36731425
000160 f2 83 ad be 70 65 dd be 59 39 96 be 63 48 0e bf
       -0.3388973 -0.43241453 -0.29340628 -0.55579203
000170 e5 7d 1c bf 80 bf 9f be 7a 93 13 bf bb 6a cc be
       -0.611296 -0.3120079 -0.57646906 -0.3992518
000180 b8 5f d7 be 49 89 92 be 66 81 af be 4a d2 fd be
       -0.42065215 -0.28620365 -0.3427841 -0.495745
000190 7b 58 a8 be 74 d1 f3 be d4 5c a8 be a2 40 b4 be
       -0.32880005 -0.47620738 -0.32883322 -0.3520556
0001a0 76 00 df be f5 0b a6 be 5e b0 1d bf a9 46 20 bf
       -0.4355504 -0.32430997 -0.6159724 -0.6260782
0001b0 e3 71 c3 be 7d 6d 47 bf 82 59 9b be 90 1b ef be
       -0.38172826 -0.7790144 -0.30341727 -0.46700716
0001c0 e5 25 ea be 71 3d b2 be 29 db 1d bf bb a5 2c bf
       -0.45732036 -0.348125 -0.61662537 -0.67440385
0001d0 bb 35 32 bf 79 a1 bb be da f2 da be 3c 64 ee be
       -0.69613236 -0.3664663 -0.42763406 -0.46560848
0001e0 bd cc 0b bf 0e a1 f9 be 66 97 4a bf 54 46 a5 be
       -0.5460928 -0.48755687 -0.79137266 -0.3228022
0001f0 06 fe 96 be e8 7e 1d bf fe ea cf be ba 49 cd be
       -0.2949068 -0.6152177 -0.40608972 -0.4009531
000200 b2 1e e9 be a8 d5 0d bf 1c e6 e1 be 1f 48 af be
       -0.4553123 -0.5540414 -0.44120872 -0.34234712
000210 6e d2 da be da d5 af be 02 a1 b2 be 8b 70 cb be
       -0.4273867 -0.34342843 -0.34888464 -0.397343
000220 7a 0f bf be cc 28 f2 be 91 4c e2 be e8 2f cd be
       -0.37316495 -0.4729675 -0.4419904 -0.40075612
000230 50 45 cc be 1a f6 e4 be ff 21 cd be 40 e2 ac be
       -0.3989663 -0.4471901 -0.40065 -0.33766365
000240 33 ca dd be b5 b4 10 bf c1 f9 a7 be b9 ef 31 bf
       -0.43318328 -0.5652574 -0.32807735 -0.6950641
000250 1c 38 d0 be bd 18 fc be 8e a6 dc 3e 53 79 c3 3e
       -0.40667808 -0.49237624 0.4309582 0.381785
000260 db 40 06 3f 03 de fc 3e f1 ba ca 3e 45 27 ff 3e
       0.5244271 0.49388131 0.3959575 0.49834648
000270 7c 84 9b 3e b2 36 bb 3e 9a de bb 3e 6a 53 d6 3e
       0.30374515 0.36565167 0.3669327 0.41860515
000280 b0 eb c7 3e 54 b6 f1 3e 5d ad ee 3e 92 c5 b6 3e
       0.39047003 0.47209418 0.4661664 0.3569761
000290 e3 cf ce 3e 53 4e c0 3e 7b 47 a7 3e 92 16 d6 3e
       0.4039298 0.37559757 0.32671723 0.41814095
0002a0 e8 71 9c 3e 3e 41 0d 3f 40 e6 e7 3e 54 fe ab 3e
       0.30555654 0.55177677 0.45292854 0.33592474
0002b0 1d bc f6 3e 42 1c e1 3e 45 29 ee 3e 2f 55 9f 3e
       0.48190394 0.43966872 0.4651586 0.31119677
0002c0 55 d4 a6 3e 7d 6b ea 3e 8e a8 b1 3e 8f ee 94 3e
       0.3258387 0.45785132 0.3469891 0.29088256
0002d0 d0 95 af 3e f6 b2 b8 3e a8 92 e9 3e 68 47 d5 3e
       0.34293985 0.36074036 0.45619702 0.4165604
0002e0 88 f3 de 3e 16 ad cb 3e 3f 83 ff 3e fe 7b e5 3e
       0.43545175 0.39780492 0.4990482 0.4482116
0002f0 55 26 94 3e 73 61 0d 3f f1 39 f0 3e 89 e9 dd 3e
       0.28935495 0.5522682 0.46919206 0.43342236
000300 97 e0 c8 3e 87 3d 93 3e 47 6a cf 3e b1 d3 0d 3f
       0.39233848 0.2875788 0.4051077 0.5540114
000310 0a 63 00 3f 53 55 c2 3e ac 47 dc 3e bb 92 fa 3e
       0.5015112 0.37955722 0.4302343 0.4894007
000320 ed e9 f8 3e 73 55 ab 3e 67 1c f8 3e 72 8c 07 3f
       0.4861597 0.3346363 0.4845917 0.5294868
000330 92 3d 0b 3f 28 e2 a0 3e e5 97 a9 3e 31 77 cb 3e
       0.54390824 0.31422544 0.331237 0.39739373
000340 92 8b a0 3e f0 8d ff 3e 54 0b e9 3e 4a d6 dd 3e
       0.31356484 0.49912977 0.45516455 0.43327552
000350 54 10 d1 3e 9c e1 e9 3e a7 31 b6 3e a2 6a a0 3e
       0.4083277 0.4567994 0.35584757 0.31331354
000360 36 be f6 3e 2b c7 d0 3e 2c 73 f8 3e 54 0f a2 3e
       0.48191994 0.40776953 0.4852537 0.3165232
000370 01 da 08 3f 0f 37 f5 3e 67 94 da 3e 1d 93 cc 3e
       0.5345765 0.4789357 0.42691347 0.3995599
000380 0c 66 ca 3e 50 7f be be 0c 01 4e bf b1 87 52 3e
       0.3953098 -0.37206507 -0.8047035 0.20559575
000390 c6 40 70 be 0a 19 aa bd 80 c6 dd be 67 c8 a1 be
       -0.23462209 -0.08305557 -0.43315506 -0.31598207
0003a0 ba 8b 96 be 5b 48 f4 be 03 41 92 bf 45 fc 14 bf
       -0.29403478 -0.47711453 -1.142609 -0.5819743
0003b0 ab 6a 2e bf 1c 9e 93 be 20 ce cd be 04 d9 d2 3e
       -0.6813151 -0.28831565 -0.40196323 0.41181195
0003c0 1e 2d 96 be ba 1e 59 bf 67 29 fc be 2b d4 aa be
       -0.29331297 -0.8481251 -0.49250337 -0.33364996
0003d0 80 43 27 bf ce a1 e8 be 73 64 fd be 47 59 d2 3e
       -0.6533737 -0.45435947 -0.494907 0.41083738
0003e0 a8 af 01 bf 4a 92 a2 be 1b ea d0 be da c9 de 3e
       -0.50658655 -0.31752235 -0.40803608 0.43513376
0003f0 82 5d 31 3d e0 3c c9 be b8 26 78 bf f4 1b b3 3e
       0.043302067 -0.39304256 -0.9693408 0.34982264

fc2.bias f4 [19]
000000 46 ff 2d bf d5 51 da be 00 d5 aa 3e 2d fc 08 bf
       -0.6796764 -0.42640558 0.3336563 -0.5350979
000010 b9 a5 22 bf 65 00 b3 be 66 c9 f4 3e 4c 68 ff 3e
       -0.6353412 -0.34961239 0.47809905 0.4988426
000020 38 dc ba be 62 d8 3e bf 92 3e fa be f2 e9 0b bf
       -0.3649614 -0.74548924 -0.48875862 -0.5465385
000030 53 d1 eb be b6 a5 0b bf b9 78 a0 3f 84 70 f2 be
       -0.4605814 -0.5454973 1.2536842 -0.47351468
000040 9a 96 e6 be f7 e3 61 bd 37 54 cf 3e
       -0.45036775 -0.055149045 0.40493938
